…
 - 162s - loss: 0.0552 - acc: 0.9804 - val_loss: 0.0596 - val_acc: 0.9845
Epoch 29/30
 - 162s - loss: 0.0544 - acc: 0.9815 - val_loss: 0.0567 - val_acc: 0.9827
Epoch 30/30
 - 162s - loss: 0.0506 - acc: 0.9825 - val_loss: 0.0592 - val_acc: 0.9850
[INFO] Salvando modelo treinado ...
[INFO] modelo: ../models/cnn_model_LIBRAS_20190606_0106.h5 salvo!
[INFO] Tempo de execução da CNN: 83.5 min
[INFO] Summary: 
_________________________________________________________________
Layer (type)                 Output Shape              Param #   
=================================================================
conv2d_1 (Conv2D)            (None, 64, 64, 32)        896       
_________________________________________________________________
leaky_re_lu_1 (LeakyReLU)    (None, 64, 64, 32)        0         
_________________________________________________________________
max_pooling2d_1 (MaxPooling2 (None, 32, 32, 32)        0         
_________________________________________________________________
conv2d_2 (Conv2D)            (None, 30, 30, 32)        9248      
_________________________________________________________________
leaky_re_lu_2 (LeakyReLU)    (None, 30, 30, 32)        0         
_________________________________________________________________
max_pooling2d_2 (MaxPooling2 (None, 15, 15, 32)        0         
_________________________________________________________________
conv2d_3 (Conv2D)            (None, 13, 13, 64)        18496     
_________________________________________________________________
leaky_re_lu_3 (LeakyReLU)    (None, 13, 13, 64)        0         
_________________________________________________________________
max_pooling2d_3 (MaxPooling2 (None, 6, 6, 64)          0         
_________________________________________________________________
flatten_1 (Flatten)          (None, 2304)              0         
_________________________________________________________________
dense_1 (Dense)              (None, 256)               590080    
_________________________________________________________________
dropout_1 (Dropout)          (None, 256)               0         
_________________________________________________________________
dense_2 (Dense)              (None, 21)                5397      
=================================================================
Total params: 624,117
Trainable params: 624,117
Non-trainable params: 0
_________________________________________________________________

[INFO] Avaliando a CNN...

  1/360 [..............................] - ETA: 20s
  2/360 [..............................] - ETA: 20s
  4/360 [..............................] - ETA: 15s
  6/360 [..............................] - ETA: 14s
…
