…
 - 174s - loss: 2.6649e-04 - acc: 1.0000 - val_loss: 0.2643 - val_acc: 0.9704
Epoch 24/25
 - 161s - loss: 2.3952e-04 - acc: 1.0000 - val_loss: 0.2730 - val_acc: 0.9704
Epoch 25/25
 - 152s - loss: 2.4525e-04 - acc: 1.0000 - val_loss: 0.2877 - val_acc: 0.9713
[INFO] Salvando modelo treinado ...
[INFO] modelo: models/cnn_model_LIBRAS_20190528_2338.h5 salvo!
[INFO] Tempo de execução da CNN: 79.2 min
[INFO] Avaliando a CNN...
[INFO] Summary: 
_________________________________________________________________
Layer (type)                 Output Shape              Param #   
=================================================================
conv2d_1 (Conv2D)            (None, 64, 64, 32)        896       
_________________________________________________________________
activation_1 (Activation)    (None, 64, 64, 32)        0         
_________________________________________________________________
max_pooling2d_1 (MaxPooling2 (None, 32, 32, 32)        0         
_________________________________________________________________
conv2d_2 (Conv2D)            (None, 30, 30, 32)        9248      
_________________________________________________________________
activation_2 (Activation)    (None, 30, 30, 32)        0         
_________________________________________________________________
max_pooling2d_2 (MaxPooling2 (None, 15, 15, 32)        0         
_________________________________________________________________
conv2d_3 (Conv2D)            (None, 13, 13, 64)        18496     
_________________________________________________________________
activation_3 (Activation)    (None, 13, 13, 64)        0         
_________________________________________________________________
max_pooling2d_3 (MaxPooling2 (None, 6, 6, 64)          0         
_________________________________________________________________
flatten_1 (Flatten)          (None, 2304)              0         
_________________________________________________________________
dense_1 (Dense)              (None, 256)               590080    
_________________________________________________________________
dense_2 (Dense)              (None, 5)                 1285      
=================================================================
Total params: 620,005
Trainable params: 620,005
Non-trainable params: 0
_________________________________________________________________

  1/100 [..............................] - ETA: 4s
  3/100 [..............................] - ETA: 3s
  5/100 [>.............................] - ETA: 3s
  7/100 [=>............................] - ETA: 3s
…
