…
Epoch 24/25
 - 113s - loss: 2.4312e-04 - acc: 1.0000 - val_loss: 1.4633 - val_acc: 0.8730
Epoch 25/25
 - 113s - loss: 1.5805e-04 - acc: 1.0000 - val_loss: 1.4196 - val_acc: 0.9023
[INFO] Salvando modelo treinado ...
[INFO] modelo: models/trained_classifier_model_20190528_001136.h5 salvo!
[INFO] Tempo de execução da CNN: 2834.62 s
[INFO] Avaliando a CNN...
[INFO] Summary: 
_________________________________________________________________
Layer (type)                 Output Shape              Param #   
=================================================================
conv2d_1 (Conv2D)            (None, 64, 64, 32)        896       
_________________________________________________________________
activation_1 (Activation)    (None, 64, 64, 32)        0         
_________________________________________________________________
max_pooling2d_1 (MaxPooling2 (None, 32, 32, 32)        0         
_________________________________________________________________
conv2d_2 (Conv2D)            (None, 30, 30, 32)        9248      
_________________________________________________________________
activation_2 (Activation)    (None, 30, 30, 32)        0         
_________________________________________________________________
max_pooling2d_2 (MaxPooling2 (None, 15, 15, 32)        0         
_________________________________________________________________
conv2d_3 (Conv2D)            (None, 13, 13, 64)        18496     
_________________________________________________________________
activation_3 (Activation)    (None, 13, 13, 64)        0         
_________________________________________________________________
max_pooling2d_3 (MaxPooling2 (None, 6, 6, 64)          0         
_________________________________________________________________
flatten_1 (Flatten)          (None, 2304)              0         
_________________________________________________________________
dense_1 (Dense)              (None, 256)               590080    
_________________________________________________________________
dense_2 (Dense)              (None, 3)                 771       
=================================================================
Total params: 619,491
Trainable params: 619,491
Non-trainable params: 0
_________________________________________________________________

  1/100 [..............................] - ETA: 4s
  3/100 [..............................] - ETA: 3s
  5/100 [>.............................] - ETA: 2s
  7/100 [=>............................] - ETA: 2s
…
