…
 - 130s - loss: 0.0103 - acc: 0.9964 - val_loss: 0.0818 - val_acc: 0.9800
Epoch 29/30
 - 124s - loss: 0.0093 - acc: 0.9971 - val_loss: 0.0872 - val_acc: 0.9784
Epoch 30/30
 - 119s - loss: 0.0114 - acc: 0.9960 - val_loss: 0.0853 - val_acc: 0.9811
[INFO] Salvando modelo treinado ...
[INFO] modelo: ../models/cnn_model_LIBRAS_20190531_0135.h5 salvo!
[INFO] Tempo de execução da CNN: 63.5 min
[INFO] Avaliando a CNN...
[INFO] Summary: 
_________________________________________________________________
Layer (type)                 Output Shape              Param #   
=================================================================
conv2d_1 (Conv2D)            (None, 64, 64, 32)        896       
_________________________________________________________________
leaky_re_lu_1 (LeakyReLU)    (None, 64, 64, 32)        0         
_________________________________________________________________
max_pooling2d_1 (MaxPooling2 (None, 32, 32, 32)        0         
_________________________________________________________________
conv2d_2 (Conv2D)            (None, 30, 30, 32)        9248      
_________________________________________________________________
leaky_re_lu_2 (LeakyReLU)    (None, 30, 30, 32)        0         
_________________________________________________________________
max_pooling2d_2 (MaxPooling2 (None, 15, 15, 32)        0         
_________________________________________________________________
conv2d_3 (Conv2D)            (None, 13, 13, 64)        18496     
_________________________________________________________________
leaky_re_lu_3 (LeakyReLU)    (None, 13, 13, 64)        0         
_________________________________________________________________
max_pooling2d_3 (MaxPooling2 (None, 6, 6, 64)          0         
_________________________________________________________________
flatten_1 (Flatten)          (None, 2304)              0         
_________________________________________________________________
dense_1 (Dense)              (None, 256)               590080    
_________________________________________________________________
dropout_1 (Dropout)          (None, 256)               0         
_________________________________________________________________
dense_2 (Dense)              (None, 21)                5397      
=================================================================
Total params: 624,117
Trainable params: 624,117
Non-trainable params: 0
_________________________________________________________________

  1/100 [..............................] - ETA: 8s
  2/100 [..............................] - ETA: 7s
  3/100 [..............................] - ETA: 6s
  4/100 [>.............................] - ETA: 5s
…
